setup/model.pth (torch, 253468 bytes, 10 tensors)

weight f4 [6, 3, 5, 5]
000000 bc e0 db bc 97 b2 d6 3d 5c 29 b6 bd c6 89 32 bd
       -0.02684056 0.10483282 -0.088946074 -0.043588422
000010 9a ab 84 3d 53 c4 e6 bb 79 20 e1 bd a1 03 63 3d
       0.06478043 -0.0070424466 -0.10992522 0.055423383
000020 51 9d b0 3d c6 72 66 bd d0 57 96 bc 4c 0a cb bc
       0.08623756 -0.0562618 -0.01835242 -0.024785183
000030 50 51 7c bd b2 1f 84 3d b1 a6 30 3b f9 26 d1 3d
       -0.061600983 0.06451358 0.0026954825 0.102125116
000040 0a cf 6f bd 89 80 69 bc 1a 10 b3 bd d3 0b 88 bd
       -0.058547057 -0.014251837 -0.087433055 -0.0664288
000050 27 47 04 3d f3 fc e1 bd 8e 6e e3 3d 6b 03 bf 3d
       0.03229442 -0.11034574 0.11105071 0.09326824
000060 5e 69 8b bb 55 c2 dd 3d 38 2c fb 3c 96 36 17 3d
       -0.004254504 0.108280815 0.030660734 0.03691729
000070 cb 90 67 3d f3 5f 3a 3d 9c 91 6f bc 42 21 95 bd
       0.05653457 0.04550166 -0.014622118 -0.07281734
000080 b5 83 af 3d 62 5e e0 3b 2e 64 30 bb 82 84 77 3d
       0.08570043 0.006847189 -0.002691518 0.060429104
000090 89 c9 66 3d 94 91 8e bd 34 ef 9f 3d 1a 81 a8 bd
       0.056344543 -0.069613606 0.07809296 -0.08227749
0000a0 88 6d 40 bd 2a d3 75 bd 05 ac c0 bd 75 9b 4f 3c
       -0.046979457 -0.060015835 -0.0940781 0.012671341
0000b0 16 63 6b 3d 2c 14 a2 bc 91 f5 5a 3d 4a e2 d0 3d
       0.057467543 -0.01978501 0.053456847 0.10199411
0000c0 4b 1f d6 3d 7d 57 36 3d b3 97 3d bc 48 5e 81 bc
       0.104551874 0.04451703 -0.011571812 -0.015792027
0000d0 db e1 8b 3d cb 09 7c 3d c6 6a 9d 3d 2b c9 41 bc
       0.06830188 0.061532777 0.07686381 -0.011827747
0000e0 22 8a 8b 3d 67 37 09 3d 8e ba 6b 3d 77 e3 81 3d
       0.06813456 0.0335001 0.05755096 0.063422136
0000f0 94 fb cb bd 73 a7 a1 3d a2 37 d5 3d 10 78 e5 bd
       -0.09960094 0.078932665 0.10411002 -0.11204541
000100 4d 82 8b bd 7c 1d e7 bd b0 33 79 bd 00 38 a1 bc
       -0.06811962 -0.112849206 -0.06084031 -0.019680023
000110 71 a5 a1 bd 86 c8 d8 3d 94 77 bb bd 28 f8 9c bd
       -0.078928836 0.10585122 -0.09153667 -0.076645195
000120 0c b7 c1 bd 77 3f d7 3b ca 68 11 bd a3 d3 5d 3d
       -0.094587415 0.006568845 -0.035500325 0.05415691
000130 bd aa 01 3d a8 e4 1c 3d f2 1e 47 bb 4b e3 55 bd
       0.03165697 0.038304 -0.0030383435 -0.052218717
000140 d0 2d 29 bc 69 e8 2a bd 74 27 63 3d 68 78 82 3d
       -0.010325864 -0.04172555 0.055457547 0.06370622
000150 e3 9b 9a 3d 64 0e 06 3c 11 d9 d7 bc 93 a9 dc 3d
       0.07549264 0.008182142 -0.026348623 0.10774531
000160 9d b7 9a 3b 69 50 cd bc 72 85 63 3d 7e bf e3 3d
       0.0047215954 -0.025062757 0.055547185 0.111205086
000170 70 ce 93 bd 97 d4 c4 3c e8 68 ef bc fd 4d 32 bd
       -0.07217109 0.024027152 -0.029224828 -0.043531407
000180 10 91 06 bd d6 c9 e0 bd 03 68 15 3d 5d 19 a8 3d
       -0.032853186 -0.10975997 0.036476146 0.08207963
000190 80 fd 74 bc e7 1a 0c bd e8 02 82 3d d4 70 c7 bd
       -0.014953017 -0.034205344 0.063482106 -0.09738317
0001a0 0c 32 5e 3d 77 97 ab bc 31 d4 ae 3b 40 e8 ab bd
       0.054246947 -0.020946248 0.005335354 -0.083939075
0001b0 ba 6e 5a 3d 1e 6c a7 3d b7 74 32 3d 5a 35 aa 3d
       0.053328253 0.081749186 0.04356834 0.08310957
0001c0 3a 33 9a 3c 47 0a 33 3c ce b2 5b 3d ef 8b a3 3d
       0.018823255 0.010927743 0.05363732 0.079856746
0001d0 ea 80 59 bd 42 82 d6 bd 09 d2 a4 3d a7 e7 55 bd
       -0.053101458 -0.104740635 0.080478735 -0.052222874
0001e0 f8 80 f3 3b 21 cd fa 3c 3c a1 b8 bd d0 93 c4 bd
       0.0074311458 0.030615391 -0.09015128 -0.095985055
0001f0 db 63 d0 bd 45 15 03 3c be 5e cd 3d d5 e0 b5 bd
       -0.10175296 0.0080006765 0.10027836 -0.08880774
000200 0c 19 96 bd 53 29 74 bb ce 1e 94 3d fc 6b 3b bd
       -0.07328996 -0.0037256076 0.07232438 -0.04575728
000210 24 d1 17 bc 4a e6 39 ba 66 cd c1 3d f1 fe 87 3d
       -0.009266172 -0.00070915057 0.09463005 0.06640423
000220 2c 26 a4 bd 07 34 d8 3a 40 2f 98 3b 15 26 2d 3d
       -0.08015093 0.0016494998 0.0046443045 0.042272646
000230 f2 c6 68 bd 73 52 90 bd 2c f4 97 bd 8a 5a 6b bd
       -0.056830354 -0.07046976 -0.07419619 -0.05745939
000240 5b a5 d8 3d 7e e5 9c bd f5 19 9e bd ee 15 85 3c
       0.10578414 -0.0766096 -0.07719795 0.016245808
000250 da 3a 99 bc ae 12 d1 3d 6b 84 5b 3d 00 4f c1 bd
       -0.01870482 0.10208641 0.05359308 -0.09438896
000260 72 d3 94 bd 97 33 81 bb 38 26 b4 bc d1 9b 28 bd
       -0.072668925 -0.0039429176 -0.02199088 -0.041164223
000270 86 3f b3 bd cd cc 86 bb c3 8e b7 3d f6 09 1a 3d
       -0.087523505 -0.0041137696 0.089627765 0.037607156
000280 bc 1d c0 bd b0 47 ce 3c 31 8f d8 3d c5 6d ae bd
       -0.093806714 0.025180668 0.105741866 -0.085170306
000290 f7 7f 7b bd fc 03 b6 bd 84 70 e4 bd ca 10 65 3d
       -0.061401334 -0.08887479 -0.11154273 0.055924214
0002a0 89 e6 a0 bc d6 cd d5 3d 82 07 9c 3d 7b 73 95 bd
       -0.019641178 0.10439651 0.076186195 -0.07297417
0002b0 f0 82 d6 bd b2 51 29 bd 89 5c e5 3d 01 34 e0 bc
       -0.10474193 -0.041337676 0.1119929 -0.027368547
0002c0 51 4c 23 bd b1 63 c1 bd dd d2 33 3d 06 f1 a7 3c
       -0.039867703 -0.09442843 0.043902267 0.020500671
0002d0 a2 56 e2 3d 70 35 b7 bd d0 52 1d 3d 05 2e 85 3d
       0.1105168 -0.08945739 0.038409054 0.06502918
0002e0 c0 bb 9e 3d 03 f0 45 3d c1 96 e7 bd f9 d6 97 bd
       0.07750654 0.048324596 -0.11308051 -0.0741405
0002f0 7c c6 72 bc c7 9f 2b 3d 4b 76 4e bd 24 09 23 bd
       -0.01481783 0.041900422 -0.05040578 -0.03980364
000300 7f 03 3d bc d9 44 75 bd de 93 e7 bd c6 ad ca 3b
       -0.011536478 -0.05988011 -0.113075 0.006185266
000310 68 67 b8 3d 3e 6a 83 3d bc 89 9f bd 61 15 29 3d
       0.09004098 0.064167485 -0.077899426 0.041280154
000320 33 92 56 3c b7 44 c9 bd dc c9 ce 3d 1b c9 ae bc
       0.01309638 -0.098275594 0.10097095 -0.021336129
000330 59 b0 f1 3c 80 2b 53 3c 42 af 95 bd 0e af e9 bd
       0.029503034 0.012888789 -0.073088184 -0.11410342
000340 c8 f0 2f 3d bb 5f b1 bc 3e d9 a0 bd cc 4a e2 bd
       0.042954236 -0.021652093 -0.07853936 -0.110494226
000350 91 e9 75 bd e0 d0 5f bd 2b 53 9f bc 63 97 b4 bd
       -0.0600372 -0.054642558 -0.019448837 -0.08817937
000360 36 02 99 3c 05 21 ab 3d ce c6 03 3d 3e b1 76 3d
       0.018677812 0.08355907 0.032172017 0.060227625
000370 ea 68 88 3b 16 3c f5 bc 24 b7 d2 3d 6d c5 c7 3d
       0.0041628974 -0.029935878 0.102888376 0.09754453
000380 a5 8a 9c bd bc db f1 bc 25 c9 cb 3d f5 6a 37 3d
       -0.07643632 -0.029523723 0.09950475 0.044779737
000390 a8 12 a4 bd 32 5a bc bd 16 d5 16 3d f5 44 91 bd
       -0.08011371 -0.09196891 0.03682431 -0.07093231
0003a0 a6 0f d1 bd b3 5e ac 3d 12 8d e9 3d 7b 78 10 3d
       -0.10208063 0.084165 0.1140386 0.03527115
0003b0 79 07 67 bd 0b 8c b1 bc 0b 2c b7 bb e3 c8 0c bd
       -0.05640361 -0.021673223 -0.005589967 -0.034371268
0003c0 14 46 e4 3d b4 74 68 bd 1a a1 54 3c f3 ea fb ba
       0.11146179 -0.05675192 0.012977863 -0.0019219801
0003d0 f4 2d 70 bc b2 2a 8b 3d 4c e0 da bd 82 4f cd 3d
       -0.014659394 0.06795253 -0.106873125 0.100249305
0003e0 cc 1b 6b 3d 5c ae ac bd ae c8 aa bd 6a 3a 29 bd
       0.057399556 -0.08431694 -0.08339058 -0.041315474
0003f0 b6 7e b5 3d 8c 06 ea 3d 7e 95 f4 3c 91 ba c9 bd
       0.08862059 0.1142703 0.02985644 -0.09850038

bias f4 [6]
000000 08 e5 e6 bc 9a fc e9 3d 1d ac e1 3d 77 ea b2 3b
       -0.028185382 0.11425133 0.11019156 0.0054600793
000010 10 ab 31 bd 45 65 46 3c
       -0.04337603 0.0121091055

weight f4 [16, 6, 5, 5]
000000 e1 08 66 bd e8 5f ef 3c 92 25 86 3d 65 1e 1f 3d
       -0.05616081 0.029220536 0.06550135 0.038847346
000010 91 e8 dd 3a 2b 42 13 3d e6 0a a5 3d 4f ff 8a bd
       0.0016930272 0.035951775 0.08058719 -0.067869775
000020 09 83 82 bd 45 01 e8 ba b0 da 8b 3d 25 76 81 3d
       -0.06372649 -0.0017700574 0.06828821 0.063213624
000030 3d ef f5 3b 46 67 39 3c 4f b6 aa 3c 0a b7 06 bd
       0.007505326 0.011316126 0.020838885 -0.032889403
000040 13 31 29 3d 2c a5 25 bd 5e b2 25 bd be 33 9e bc
       0.041306566 -0.040440723 -0.040453307 -0.019311782
000050 a7 4d 92 bd 6e b7 1d 39 04 99 45 3d 82 20 24 3d
       -0.07143717 0.0001504102 0.04824163 0.040070064
000060 19 ca 1d bd 2c 27 05 bd 99 b1 0e bd 09 31 bc 3c
       -0.038522813 -0.03250806 -0.03483734 0.0229726
000070 fc 10 a5 bd 60 01 22 3d 00 5f 93 3d de 10 26 bd
       -0.0805988 0.039552093 0.07195854 -0.04054343
000080 d8 d5 79 bd 7c 90 75 3d f9 59 80 bd 6f 65 41 3d
       -0.060994953 0.059952244 -0.06267161 0.047215875
000090 3d 4a 31 bd d2 24 38 bd b8 0e 01 bc c4 69 c3 3a
       -0.04328369 -0.04495699 -0.007877044 0.001490884
0000a0 94 18 d9 3c 57 f3 63 3d d7 3c c3 bc 9d ec 6c 3d
       0.026500978 0.05565199 -0.023832722 0.05784284
0000b0 0b 59 b7 3c 36 85 85 bd 30 cb 29 bd 02 d4 c9 3c
       0.022381326 -0.065195486 -0.04145354 0.024637226
0000c0 8b 69 48 3d 2f 12 a6 3c a9 4e 80 3d fa 28 dd bc
       0.04892878 0.020272342 0.06265003 -0.026997078
0000d0 60 ed 4c bd bf 44 61 bc 10 22 1c 3d 91 b3 61 bd
       -0.050031066 -0.0137493005 0.038118422 -0.05510289
0000e0 83 b9 44 bb 6f 38 f9 bc 9b 5b 40 3c 2e 18 3e 3d
       -0.00300178 -0.030422417 0.01174059 0.04640978
0000f0 8e 03 21 3d 68 0f 80 3d 81 99 8b bd 38 51 97 3d
       0.03931003 0.062529385 -0.06816388 0.07388538
000100 88 e4 57 3d f5 7b 80 bd 32 be 4d bc 1c d2 86 3c
       0.05270818 -0.06273643 -0.012557553 0.01645761
000110 3a c5 3a bc c5 e4 9a bc 35 7a b0 bc b3 d1 1c 3d
       -0.011399562 -0.018907914 -0.021542648 0.038285922
000120 69 5b 37 ba 8e a1 8a 3d 8c 2f 60 bc d5 06 6c bd
       -0.0006994517 0.06769095 -0.013683211 -0.057623703
000130 33 c4 dc bc 31 51 3b 3d f9 76 a3 bd 08 40 11 bc
       -0.026949024 0.045731727 -0.079816766 -0.008865364
000140 ef a3 29 bd 06 5b 97 bd f5 ed a1 3d 3a b7 0c 3d
       -0.041416105 -0.07390408 0.07906715 0.034354426
000150 ca bf 82 bb 18 4c 19 b8 71 4c 8c bd 92 2a 96 bd
       -0.003990148 -3.654891e-05 -0.068505175 -0.073323384
000160 23 92 83 3c 4a 8b 96 3d ce cb 15 3d 5d 28 84 3d
       0.016060894 0.07350786 0.036571316 0.06453011
000170 8e a9 1a 3d 38 bf 9e 3d b8 83 d4 bc e8 62 1a bd
       0.037759356 0.07751316 -0.025941715 -0.03769198
000180 49 17 82 3d d9 ab 45 bc 94 e0 89 3b 0e 81 c1 3c
       0.063520975 -0.012064897 0.00420768 0.023621108
000190 7f c7 7a ba 8e 44 35 bd 27 c1 b6 3c 44 12 10 3d
       -0.00095664704 -0.044254832 0.0223089 0.03517367
0001a0 22 1b 22 3d bc 47 10 bc be c0 3e bc 49 b1 33 3d
       0.039576657 -0.008806165 -0.011642633 0.043870244
0001b0 fc c6 51 bd b6 fd 37 3d 63 71 a6 3c a6 86 72 bc
       -0.051215157 0.044919692 0.020317739 -0.0148026105
0001c0 ad 98 97 bc da e5 e5 3c 70 a4 6d bd 8e 46 04 bd
       -0.018505419 0.028063703 -0.058018148 -0.03229385
0001d0 06 c3 d1 bc 8d f3 78 bd 3a fb 5a bc c8 ed a5 bd
       -0.02560569 -0.060779143 -0.013365561 -0.08101994
0001e0 5b 6d a2 3d 90 4d b3 bb 34 74 33 3d 77 a0 51 bd
       0.07931014 -0.0054718927 0.04381199 -0.05117842
0001f0 42 4c 6d 3d 75 64 88 3c 7a f8 86 3d 37 65 87 bd
       0.057934053 0.016649464 0.06590362 -0.06611102
000200 55 2c b0 3b 4d a0 a1 3d 50 f2 76 bd 5d 35 c9 3c
       0.0053763785 0.07891903 -0.06028968 0.024561578
000210 29 fe 83 3d 16 8f a6 bd e6 f7 3f 3d ca 6a 48 3d
       0.064449616 -0.0813276 0.046867274 0.048929967
000220 23 9f b2 3c b4 5e 1f bd 94 62 8a bd 5e e8 5e bd
       0.021804398 -0.038908675 -0.067570835 -0.05442082
000230 dc 57 a4 bd b0 6e 7c bc f3 71 90 3c 8e c2 64 bd
       -0.0802457 -0.015407249 0.01763246 -0.055849604
000240 88 7b 8d 3d 0d c5 90 3d c5 e8 90 bc f7 de bf 3c
       0.06908327 0.070688345 -0.017689118 0.023421748
000250 b9 f1 27 3d d8 fb d7 b9 11 cb 2a 3a 6a 93 96 bd
       0.04100201 -0.00041195634 0.00065152446 -0.07352336
000260 4a 46 35 bd 38 62 18 3d 83 8b a3 bd f2 fa d2 bc
       -0.044256486 0.037203044 -0.07985594 -0.025754426
000270 d6 9c 96 bd 04 c1 49 bd e2 48 89 3d d4 2e b7 3c
       -0.07354133 -0.04925634 0.067033544 0.022361197
000280 a7 c4 6a 3d 4e 42 a4 bd 8c b8 95 bd 62 ca 1c 3d
       0.05731645 -0.08020459 -0.0731059 0.038278945
000290 09 b3 ab 3c 1e 47 de 3c 23 1e 9a 3c da d5 f9 bc
       0.020959394 0.02713352 0.018813198 -0.03049748
0002a0 57 b7 07 bd 9e e9 35 3d 99 92 1d 3d 68 96 88 3c
       -0.03313383 0.044412248 0.038469885 0.016673282
0002b0 94 69 a0 bd a3 c0 14 bd 07 80 a2 bd 60 11 93 3d
       -0.078326374 -0.036316525 -0.079345755 0.071810484
0002c0 6d 38 8b bc ae 2d a3 bd e3 c5 30 bd 56 90 3a 3d
       -0.01699468 -0.07967697 -0.04315747 0.045547806
0002d0 f7 d8 67 bd 1f a2 8e 3d 45 e8 39 3d 9c 32 93 bd
       -0.0566034 0.06964516 0.045387525 -0.07187387
0002e0 bb 4d 20 bc 07 6b 96 bd 48 38 37 3d a1 7d 88 bd
       -0.009784157 -0.073446326 0.04473141 -0.06664587
0002f0 f9 c2 da 3c 2b c3 7f bd d2 5b 9d 3d 93 87 3c 3d
       0.026704298 -0.062441986 0.07683529 0.04602773
000300 03 90 8e 3c 48 ec 5c bd 2a 7a a2 3d b2 79 a3 bb
       0.017402655 -0.053936273 0.07933457 -0.0049888724
000310 d8 dd 98 bc 42 cf 59 3d 30 09 51 bc d6 b2 b2 3b
       -0.01866047 0.053176172 -0.012758538 0.005453448
000320 b9 f8 04 bc cd 3f 36 3d c2 e3 3d 3b 89 46 43 3c
       -0.008115941 0.04449444 0.0028974866 0.011918672
000330 9a b9 06 bd 91 d7 5d 3d ca 74 61 bd 67 1b 89 bd
       -0.032891847 0.05416066 -0.05504302 -0.0669468
000340 37 7e 22 bd db ae 97 3d 77 60 71 b9 a9 95 ab bc
       -0.03967115 0.07406398 -0.00023019487 -0.020945387
000350 ea 88 69 bd ab 03 7e bd 39 78 d2 bc c9 a2 45 3c
       -0.057015337 -0.062015217 -0.025692092 0.012062737
000360 8d e2 3c 3d 03 e7 1d 3d ff ca 76 3d a2 a7 53 3d
       0.046114493 0.038550388 0.060252186 0.05167354
000370 c0 70 51 3d e1 00 59 3d 6b 88 8e 3d cd e1 78 3d
       0.051132917 0.052979354 0.069596134 0.060762215
000380 9a 14 18 3c 32 31 95 3d 50 8c 11 3d 71 d4 d0 bc
       0.009282256 0.07284774 0.035534203 -0.025491925
000390 38 bb 34 bd 37 43 3d 3d 3d 72 9b bd bd 48 87 bd
       -0.04412386 0.04620668 -0.075901486 -0.066056706
0003a0 dc a3 1b bd 84 93 68 bd 62 c1 8b 3d 6d ce 4a bd
       -0.037998065 -0.056781307 0.06823994 -0.04951327
0003b0 67 cd 13 3d af 70 af 3c 81 b8 52 bd 18 bc 3c 3d
       0.03608456 0.021416036 -0.051445488 0.046077818
0003c0 ed 9f 8c bd a5 97 1b 3c c6 f3 a3 bd ff 95 97 3d
       -0.06866441 0.009496604 -0.080054805 0.07401656
0003d0 10 ba a5 bb c4 c4 01 3d 93 16 16 3d 14 86 2d bd
       -0.005057581 0.03168179 0.036642622 -0.042364195
0003e0 2c 12 8f bd cd 84 8a bd 15 f8 6a bc 3b 9a b3 bc
       -0.06985888 -0.06763611 -0.014341374 -0.021924129
0003f0 ac 66 b5 bc cc 29 68 bd 49 72 3d 3d 13 6c 36 3d
       -0.022143684 -0.056680486 0.04625157 0.04453666

bias f4 [16]
000000 09 38 f5 bc a2 4b 82 3d 9f 5d 01 bd c5 9e 2d bc
       -0.029933946 0.06362082 -0.031583425 -0.010596936
000010 00 35 cb 3c cc 1c 80 3d c2 38 92 3d 20 2e 55 bd
       0.024805546 0.062554926 0.07139732 -0.05204594
000020 b8 12 32 3c 88 2f 3b bb b5 56 3d 3c 32 d2 92 3c
       0.010868721 -0.0028562266 0.011556317 0.017922495
000030 4b b0 9e 3d d5 c2 d7 bc 7c c2 8e bd 43 f4 15 3d
       0.07748469 -0.02633802 -0.06970689 0.0366099

weight f4 [120, 400]
000000 4d 6a 2f 3b 77 b1 9e 3c 0a a5 b1 3c 38 b0 38 bd
       0.002676624 0.019371731 0.021685142 -0.04508993
000010 d8 f7 40 bd f0 2f 91 3c 10 76 3f bd f7 c8 a3 bc
       -0.047111362 0.017723054 -0.046743453 -0.019993288
000020 e2 89 19 3d 27 57 4d 3c 8f 11 3b bd 6b d7 31 3d
       0.03748501 0.012532986 -0.045671042 0.04341833
000030 c0 90 20 3d 3d 4f a5 bc 2a e6 36 bd 20 eb 1c bd
       0.039200544 -0.020179385 -0.044653095 -0.03831017
000040 33 98 e4 3b 6d b1 5d bc 6d e9 2d bd b3 57 a0 3b
       0.0069761514 -0.013531071 -0.04245894 0.004893267
000050 67 67 c7 ba e0 46 16 bd 5a 67 5c 3c 30 fd 11 bd
       -0.0015213311 -0.036688685 0.013452375 -0.03564185
000060 33 85 7a 3c 00 18 1f 3a 33 7d 8c 3b 0d df 7e 3c
       0.015290546 0.0006068945 0.004287386 0.015556109
000070 ba 98 3d 3c 58 c9 49 3d 1d bb ff 3c 78 56 10 bd
       0.011572057 0.049264282 0.031217152 -0.035238713
000080 ed c4 39 bc 53 50 37 3d 00 22 26 3d 5a 55 75 3c
       -0.011338455 0.044754338 0.04055977 0.014973963
000090 b3 8a 4f bc c3 cb e5 bc 30 c0 ae 3c ea df 10 bd
       -0.012667346 -0.028051263 0.021331877 -0.03536979
0000a0 90 f5 fa bc 02 b7 03 bd 58 0c 47 bd 8d f6 49 3d
       -0.030634671 -0.03215695 -0.048595756 0.049307395
0000b0 4d b4 74 bb f3 69 e4 3b 50 25 fb 3c bd c7 28 bd
       -0.0037338913 0.006970638 0.03065744 -0.04120611
0000c0 62 67 17 bd 47 ea 36 bd b0 bc 22 bd 13 c9 26 bd
       -0.036963828 -0.044657018 -0.039730728 -0.040719103
0000d0 7a c0 19 3d 73 96 c8 bc cd 26 74 3a d3 49 4c bc
       0.037537076 -0.024485802 0.0009313643 -0.012468773
0000e0 70 58 9a 3c b7 db ab bc cd d2 e8 3a 40 d0 1f bd
       0.018840998 -0.020978792 0.0017763019 -0.039016962
0000f0 17 43 87 3c 6d 3c d3 bc c3 df 98 bc dd 68 fa bc
       0.016511483 -0.02578565 -0.018661385 -0.03056758
000100 4d fa 45 3d 43 8d 4b 3d cd e6 0d 3b 9a 93 72 bb
       0.04833441 0.049695265 0.002165246 -0.0037014247
000110 9a f8 ef 3a 40 85 b7 bb 57 3a ae bc fa 75 75 3c
       0.0018308342 -0.0056006014 -0.021268053 0.014981741
000120 43 a7 83 bc da c4 a4 bc a3 0a 94 bc 72 d0 2d bd
       -0.016070968 -0.020113397 -0.018071478 -0.042435117
000130 cd 67 b2 ba 8d 30 2c bd 40 b3 e0 bb ea ee 21 3d
       -0.0013611257 -0.04203849 -0.0068573058 0.039534487
000140 0a 7b e5 bc 00 e3 25 3d da 17 c8 bc 73 00 63 3c
       -0.028012771 0.040499687 -0.024425436 0.013855088
000150 87 51 98 bc 9a 81 b0 3c 17 58 8b 3c b3 d9 25 bb
       -0.018593563 0.021546174 0.017009778 -0.002530676
000160 03 83 b3 3c da 81 c9 3b cd 8e 76 3c a5 00 12 3d
       0.021913057 0.0061495127 0.015048695 0.035645146
000170 40 ca 6e 3c 3d f0 9c bc 68 d0 1e 3d 4a 9f 3b bd
       0.014574587 -0.019157523 0.03877297 -0.045806207
000180 3d 45 37 bd da 77 8f bc 37 a6 9a bc 4d 90 70 bc
       -0.044743765 -0.017513204 -0.018878086 -0.0146828415
000190 d3 81 12 3d c0 d5 5a bc cd bd 41 bc 55 81 49 3d
       0.03576834 -0.013356626 -0.011825037 0.049195606
0001a0 cd a2 ae 3b 1a 40 48 3b ca 03 d2 bc d3 f5 a8 bc
       0.005329466 0.0030555786 -0.025636572 -0.02062503
0001b0 70 a2 d2 3c 00 84 0c 3c 87 31 0d bd cd 48 f4 b9
       0.025712222 0.008576393 -0.03447106 -0.00046593547
0001c0 b7 f6 8f 3c 4d dd 0e 3d bd c7 0f bd 73 81 0d bc
       0.017573697 0.034879018 -0.035102595 -0.00863682
0001d0 e7 8e e7 3b 73 11 24 bc 08 0f 1a bd b3 9a 5b 3c
       0.007066596 -0.010013926 -0.03761199 0.013403582
0001e0 23 32 88 bc 67 56 9a b8 cd 3c d4 bc 70 75 aa 3c
       -0.01662547 -7.359386e-05 -0.025907898 0.020807952
0001f0 9a 77 c1 3a aa 47 32 3d a3 1a 35 3d 38 f8 1f bd
       0.0014760375 0.043525375 0.044214856 -0.03905508
000200 4a f8 13 3d cf 89 00 bd 53 1b bd bc 00 4a db 3b
       0.03612546 -0.031381425 -0.023084318 0.006692171
000210 90 2e bd bc 13 95 91 3c 6a a7 01 bd d7 83 1d 3d
       -0.023093492 0.01777128 -0.0316538 0.03845581
000220 ad 6b 59 3c da 79 2f 3d 6d 9e 71 bc 0d f3 0e 3d
       0.013270301 0.042840816 -0.014747244 0.03489976
000230 b5 d7 19 bd 23 be af bc 0d 1c 79 bc cb 02 1f 3d
       -0.03755923 -0.021452969 -0.015204442 0.038821023
000240 e5 89 09 bd 67 a6 42 39 1a 91 ba 3c 67 e0 4a ba
       -0.033578772 0.00018563271 0.022774268 -0.0007739127
000250 b0 57 aa bc 8a bd b3 bc 3a fb f5 bc 33 74 20 bc
       -0.020793766 -0.021940965 -0.03002702 -0.009793329
000260 e5 b1 39 bd 27 dd 3e 3c 33 e7 97 bb 07 04 d0 bc
       -0.04533567 0.0116494065 -0.0046357154 -0.025392545
000270 a7 b9 f4 bb cd 93 e8 3b e7 d9 7d bb 2d 81 0e 3c
       -0.0074684205 0.0070976974 -0.0038734616 0.00869779
000280 37 77 ed bc a0 18 de bc e0 ae 9c bc 60 23 64 bc
       -0.02898751 -0.027111351 -0.019126356 -0.01392445
000290 dd 64 47 bd a0 95 fc bc 7a df 10 bd 3d 5c ab bc
       -0.048680175 -0.030833066 -0.035369374 -0.020918006
0002a0 cd c8 9e b9 00 f0 6f 3b 5a c0 3e bd 73 60 0e bd
       -0.00030285717 0.0036611557 -0.04657016 -0.03475995
0002b0 c0 84 0f bc bd 31 1c 3d 62 87 00 bd 80 54 9b bb
       -0.008759677 0.03813337 -0.03137911 -0.004740298
0002c0 a3 8d f1 3c 13 f5 a2 bc e3 47 39 3d 5a df f9 3c
       0.029486483 -0.019892251 0.045234572 0.03050201
0002d0 ea 15 d0 bc 33 5b 79 bb 8a e3 b5 3c ab 5e 24 bd
       -0.025401074 -0.0038048744 0.022203226 -0.040129345
0002e0 ff 69 4b bd d7 de 03 bd a7 44 d2 bb 5a 9a cd bc
       -0.049661633 -0.03219494 -0.0064168754 -0.025098015
0002f0 e3 d9 30 bd ed 34 d3 bc 80 a9 44 bd b3 eb 43 bd
       -0.043176543 -0.025782073 -0.04801321 -0.047832202
000300 5a 78 cb bc cf 1a 3b bd dd 30 b8 bc 1a 04 73 3c
       -0.024837662 -0.045679864 -0.022484237 0.014832521
000310 00 66 2b 3d df 72 46 bd fa 26 79 3c 1a 32 4f bc
       0.04184532 -0.048449393 0.015207047 -0.0126462225
000320 dd b9 b6 bc 53 8f a3 bc e0 78 0b 3c 05 ab 1f bd
       -0.022305423 -0.019965803 0.008512706 -0.038981456
000330 b8 36 05 3d 33 3b 54 3c 37 c1 fc 3c d3 65 1c 3c
       0.032522887 0.012953567 0.03085385 0.009545761
000340 1b b5 40 3d e2 78 30 bd 87 a0 da 3c b8 71 25 bd
       0.047047716 -0.043084033 0.026687874 -0.040391654
000350 e7 f2 02 bd b7 2b 1d 3d 9a 35 bc 3c ad fb 13 bc
       -0.03196993 0.038371768 0.022974778 -0.009032172
000360 50 08 da 3c 1d e6 91 bc b3 d0 17 bb 80 41 ae bc
       0.026615292 -0.017809922 -0.0023165166 -0.021271467
000370 43 a7 45 3d 30 9a 98 3c c7 56 e2 3c 73 31 04 3d
       0.048255216 0.01862821 0.02762927 0.03227372
000380 27 7c 1d bd b8 e2 0b bd 33 54 e2 3b 98 36 13 3d
       -0.03844848 -0.034151763 0.00690701 0.035940737
000390 3a f6 88 bc ba 6d 91 3c 4f 70 3a bd 20 50 90 3c
       -0.016718972 0.017752517 -0.045517262 0.017616332
0003a0 c7 3e 2c 3d 7f ec 01 bd 03 42 45 bd e8 20 24 3d
       0.042052057 -0.03171968 -0.048158657 0.040070444
0003b0 80 bc e8 bc 07 3e b5 bc 93 d2 eb 3c 5b 27 01 3d
       -0.028410196 -0.022124304 0.028786933 0.031531673
0003c0 a3 83 da bc 7a 10 42 bc 70 c8 0f bd 63 0c ea 3c
       -0.026674097 -0.011844749 -0.03510326 0.02857036
0003d0 cd 9c f0 bc 10 d4 82 bc 1a 9b b0 3c 40 ee a8 bb
       -0.029371643 -0.01597026 0.021558333 -0.0051553547
0003e0 9a 3f 94 3a 80 68 d3 3c ad bc af 3c 4b e7 2e bd
       0.0011310459 0.025806665 0.021452272 -0.042701047
0003f0 bd 43 09 bd 50 d7 1c 3d 33 9d 5f bc e5 f3 07 bd
       -0.033511866 0.038291276 -0.013648319 -0.03319158

bias f4 [120]
000000 93 ee c7 bc 9a 9a c4 3c 32 20 12 bd eb c2 46 3d
       -0.024405753 0.023999501 -0.035675235 0.048525732
000010 97 fe a2 bc 07 82 99 bc 52 ed 09 bd 5a f7 bb bb
       -0.019896789 -0.01873876 -0.033673592 -0.0057362737
000020 8d 0c 51 bc 6f f2 0c 3d 97 ee 92 bc c7 d7 f8 bc
       -0.01275934 0.03441089 -0.017936034 -0.030376328
000030 cd 4a 2c 3b 7a 0c be 3c 18 2e 33 3d 1a 92 6f 3b
       0.0026289702 0.023199309 0.04374513 0.003655559
000040 0f 86 2d 3d f0 00 3e 3d 0d 13 1b bc 73 93 96 3b
       0.042364176 0.046387613 -0.009464991 0.004595214
000050 3a 5f 9b bc f7 81 24 3d 5a 53 8e 3c 27 29 cf 3c
       -0.018966306 0.040163007 0.01737373 0.025288178
000060 4d 9f a1 bc cd 17 a8 bb d7 02 e0 bc 7a 0b 09 bd
       -0.01972928 -0.0051297904 -0.027345104 -0.03345821
000070 32 3c 35 3d f7 8c b0 bc cd 9c a9 bc 67 09 88 bb
       0.04424686 -0.021551592 -0.020704651 -0.0041515115
000080 58 ad 4b bd 5a 2d fe 3b 00 52 51 3c 50 d6 13 bd
       -0.04972586 0.007756871 0.012775898 -0.036093056
000090 ba 64 ca 3c d3 c5 fb 3c dd 48 9c bc cf 11 2b bd
       0.024706233 0.030733978 -0.019077713 -0.04176503
0000a0 7f bf 4c 3d 20 e5 81 3c 57 07 f3 3c 8d 2e f9 bb
       0.049987312 0.015856326 0.029666586 -0.0076044262
0000b0 e7 05 a3 bc 32 c5 05 bd cd 63 38 bd 82 66 4a 3d
       -0.019900275 -0.032658763 -0.045017052 0.049414165
0000c0 67 59 bb 3a 9a 36 84 3b 80 5f 90 bc cd 14 02 3c
       0.0014293612 0.0040348293 -0.017623663 0.00793953
0000d0 9a 2e be 3c ad fa fd bc ed fd 3a 3c 27 22 c2 3b
       0.02321558 -0.03100332 0.01141308 0.0059244814
0000e0 80 53 15 bd ff ca 18 3d 8d d2 bb bc 33 c6 a8 3b
       -0.036456585 0.037302967 -0.022927547 0.0051505803
0000f0 3a b2 cf bc 87 87 a6 bc c2 0b 31 bd 98 04 16 3d
       -0.02535354 -0.020328296 -0.043224104 0.036625475
000100 e7 7d e8 3c bd be 3f 3d 33 82 38 3b 47 4d 49 3c
       0.028380347 0.04681276 0.0028153777 0.012286491
000110 a7 b9 3c bd cd 6a 0d 3b c0 7b cb 3b c8 ba 0e bd
       -0.04607549 0.002157855 0.0062098205 -0.034846097
000120 80 77 a7 3c 2a ff d2 bc 0f b8 01 bd 0a bb 21 3d
       0.020442724 -0.025756437 -0.031669673 0.039485015
000130 8b bd 26 3d 63 f3 9a bc 82 a3 10 bd eb 2e 33 bd
       0.040708106 -0.018914884 -0.035312183 -0.043745916
000140 08 7d 05 3d 6d a2 1b 3d 7f b9 3a bd 87 e2 32 3d
       0.032589942 0.0379967 -0.04558706 0.043673065
000150 1a 2e 7f 3c a8 aa 0d 3d 1d 4e 1f bd 43 b9 44 bd
       0.015574956 0.03458658 -0.038892854 -0.04802824
000160 bd 57 0d bd 8b 39 2c 3d 57 e6 40 bd 93 47 d0 bc
       -0.034507502 0.042047065 -0.04709467 -0.025424754
000170 80 c8 f8 3b 3a e4 d7 bc d3 08 a0 3c f3 19 1b 3c
       0.007592261 -0.026353944 0.019535458 0.009466636
000180 82 28 34 bd cd 1b 86 bc fa e5 fe 3c c0 f1 84 bc
       -0.043983944 -0.016370678 0.03111552 -0.016228557
000190 93 fe 15 bd e7 20 40 3d 9d 34 c8 bc bf c1 0b bd
       -0.036619734 0.046906378 -0.02443915 -0.034120318
0001a0 98 7f 3c bd 7a 6e 11 3d b0 48 e4 3c f7 f9 b9 bc
       -0.04602012 0.03550575 0.027866691 -0.0227022
0001b0 cd 42 ff 3c dd e8 1b 3d a2 d2 43 3d a7 f5 e9 3b
       0.031159783 0.038063873 0.047808297 0.0071398797
0001c0 0f a0 3b bd a7 de f0 3c 65 84 36 3d 80 5a 12 bb
       -0.04580694 0.029403044 0.044559855 -0.0022331774
0001d0 3d ad 0f bd 28 71 3a 3d e3 f1 3d 3d fa 26 37 bd
       -0.035077322 0.04551807 0.04637326 -0.044714905

weight f4 [84, 120]
000000 94 6d 76 bd e7 6a f8 bc 12 37 74 bd 57 3a 93 bd
       -0.060163096 -0.030324413 -0.05962283 -0.07188862
000010 92 11 be 3c ee aa 32 3d 73 72 90 bd 14 f9 66 bd
       0.023201738 0.043620043 -0.070530795 -0.056389883
000020 54 b0 16 3c ca e0 8f bc 0c fa 86 3d a2 ca 57 3d
       0.009197313 -0.017563242 0.065906614 0.05268348
000030 b7 80 22 bc 7e 40 30 3d 0a 97 86 3d e3 65 82 bc
       -0.009918383 0.043030255 0.06571777 -0.015917724
000040 23 ce 45 bc 75 c7 63 bd 14 af 93 bd 71 d0 ba 3c
       -0.012073073 -0.05561014 -0.07211128 0.02280447
000050 39 b7 ba 3c 14 24 9a bc f0 67 b8 3d be 08 42 3d
       0.022792445 -0.018816032 0.090041995 0.04737162
000060 34 eb 77 bd 89 82 0b bd 7a f8 e6 bb 27 97 83 bd
       -0.06052704 -0.034060035 -0.0070486637 -0.064253144
000070 af 8e 06 3c b4 62 89 3c 70 18 94 3d 50 8e 13 bd
       0.008212729 0.016770698 0.072312236 -0.03602439
000080 e3 ea b4 bd b3 16 ae 3d 65 b6 1f ba f0 99 a2 bd
       -0.088338636 0.08500423 -0.00060925476 -0.079395175
000090 27 51 80 3d 6e 77 91 bd 33 79 8e 3d a1 38 aa bd
       0.062654786 -0.071028575 0.06956711 -0.08311582
0000a0 6b dc 0f bd 57 95 9e 3d 9a 8f b8 bd 01 be b9 3d
       -0.035122316 0.07743328 -0.09011765 0.090694435
0000b0 fd 67 a3 3d 27 fd b4 3c 09 ef f3 bc ef df 9b 3d
       0.079788186 0.022093369 -0.029777067 0.07611071
0000c0 c4 19 14 3c 2b 9b 5f 3c 50 9a d5 bc 37 5a 09 3d
       0.009039346 0.013647835 -0.026074558 0.0335333
0000d0 da 16 21 3d 9b e9 62 3d a4 45 5e bd f9 30 9c bd
       0.039328434 0.055398565 -0.054265633 -0.07626528
0000e0 48 24 36 3d 15 18 ae 3d e6 27 99 bc 3d 2b 5b bd
       0.044468194 0.08500687 -0.018695783 -0.053508032
0000f0 5c e0 4f bc 2d 21 b7 bd a7 a6 25 bd b1 76 98 3d
       -0.012687769 -0.08941875 -0.040442135 0.074445136
000100 d4 1e af 3d b3 d5 4b 3d 08 ed 2e 3d 44 c8 f5 bc
       0.08550802 0.049764346 0.04270652 -0.03000272
000110 54 34 25 3d 8e 80 9b 3d 8a ff a0 bd 8b 05 81 3d
       0.040333107 0.07592879 -0.0786124 0.06299885
000120 2d 4a 19 bd 56 c3 19 3d 8e be 8d 3d 54 77 0e bd
       -0.037424255 0.037539802 0.06921111 -0.03478177
000130 84 4e af bd 4c 7b 2a 3d 93 8d 6f 3b 8f 6b 22 3d
       -0.085598975 0.04162149 0.003655289 0.039653357
000140 ee 02 fd 3c e4 d8 93 bd 2c 3e 97 3d e8 2e 56 bd
       0.030885186 -0.07219103 0.07384905 -0.052290827
000150 62 5e 54 bd 69 6e 99 bd df 99 39 bd cc 42 a8 3c
       -0.051847823 -0.07491762 -0.04531276 0.020539664
000160 d8 d1 a1 3d fe fd 4c bd bb de 8d bd 7b a0 5a bc
       0.07901353 -0.050046913 -0.06927248 -0.013343926
000170 4e 05 7d bd 64 15 81 3d ab 2b d3 bb 93 62 88 bd
       -0.061772637 0.06302908 -0.0064444146 -0.066594265
000180 e4 50 c8 3b 68 e0 bb 3c 17 e8 32 3d a9 49 83 bd
       0.0061131585 0.022934154 0.04367837 -0.06410534
000190 00 29 22 bd 56 75 9e bb 77 77 92 3c be ce 5a bd
       -0.039589882 -0.004835765 0.01787923 -0.05341982
0001a0 30 60 84 3d 68 0f a1 bd 72 e4 99 3d b0 af 04 3d
       0.06463659 -0.07864267 0.075142756 0.03239411
0001b0 20 89 a9 bd 21 08 9b bd 83 62 ca 3c fe dd 8d 3d
       -0.08278108 -0.0756991 0.024705177 0.06927107
0001c0 cd 71 9b bd a6 89 94 bd bf 92 0e 3d 44 b1 ae bd
       -0.07590065 -0.07252817 0.034807917 -0.085299045
0001d0 13 83 1e 3d dd f9 7a 3d 3e 27 4d bd 01 58 38 3c
       0.03869922 0.061273444 -0.050086252 0.0112514505
0001e0 c7 f2 29 bd 00 b7 0a 3c 9a 6b a5 3d 5b 94 97 3d
       -0.041491296 0.008466482 0.08077164 0.074013434
0001f0 d5 7d a7 bd ff 44 f5 bb 49 6d 80 bd 6b ff 80 3d
       -0.081782974 -0.0074850316 -0.062708445 0.06298717
000200 6f 6c b8 3d c8 45 cd bb 57 5a 8f 3d 87 43 5a bd
       0.09005057 -0.006264422 0.06999653 -0.053287055
000210 e3 47 65 bd 62 70 45 3d b4 4f b5 bd 8a 1f b3 3c
       -0.05597676 0.04820288 -0.08853093 0.021865625
000220 d7 9e 46 bd db 34 d7 3a 66 e5 ab 3b 30 1a de bc
       -0.048491325 0.001641895 0.0052458523 -0.027112097
000230 2e 9f f6 3c fc 74 5a bd 93 f9 0f bd 68 ce 6b 3d
       0.0301052 -0.05333422 -0.035150122 0.05756989
000240 f1 63 b4 bd 4f 59 86 3d 12 ad 1b 3c 94 9e 3f 3c
       -0.08808125 0.06560003 0.009501712 0.011695523
000250 e9 26 ab bd a2 9d df 3c 64 21 81 3d 3c 15 e1 bc
       -0.08357031 0.027296845 0.06305197 -0.027475946
000260 75 58 9f bb 70 ad 63 bd 30 93 8b bd e4 fe 01 bd
       -0.00486284 -0.055585325 -0.06815183 -0.031737223
000270 b3 36 b6 3c 2c 5a b6 bd 56 af 64 3d 1a 06 2c bd
       0.02224288 -0.08903918 0.055831276 -0.041998006
000280 14 2e 11 3b ea bb 3b 3b fc 0c 80 3d a8 3c 64 bd
       0.002215271 0.002864594 0.062524766 -0.05572191
000290 5d ca a0 bd 09 52 a6 3b 9c b7 59 bc 3b c4 3d bd
       -0.07851098 0.0050756973 -0.013288405 -0.046329718
0002a0 97 c3 af 3c 2f 2d 28 3c 86 69 64 bd db 46 24 bd
       0.02145557 0.010264679 -0.055764697 -0.040106636
0002b0 75 c9 6f 3c bf e3 a3 bd a1 87 10 3d 85 d6 5d 3d
       0.014635433 -0.080024235 0.035285596 0.05415966
0002c0 f2 41 0d 3d 41 01 84 bd 83 03 72 3d 75 7f b0 b9
       0.03448672 -0.06445552 0.05908538 -0.000336643
0002d0 53 bb 71 3d 42 5e 0b bd 91 96 f7 bc 97 ef 7d 3d
       0.059016537 -0.034025438 -0.030223163 0.06199607
0002e0 32 45 53 bd 23 f2 8c 3c e3 13 9e 3d 99 2e b6 3d
       -0.05157966 0.017205304 0.07718637 0.088956065
0002f0 19 9a b0 bd c7 37 06 3d d6 ee 40 bd 78 01 85 3d
       -0.08623142 0.032768037 -0.04710277 0.06494421
000300 d5 22 ce 3c f0 7e 90 bd 5c 89 6e bd b7 6f b5 bc
       0.025163094 -0.070554614 -0.058236465 -0.022147996
000310 01 5d 08 bc 30 7d a9 bd 6f 3d 48 3d 3a 7e 29 3d
       -0.008322955 -0.08275831 0.048886713 0.041380145
000320 b1 08 52 3d d3 ef 8d bc 99 80 a0 3d 8b 62 97 bd
       0.05127782 -0.017326271 0.07837028 -0.073918425
000330 7d fe 26 bd 20 6c 28 3d 1c 7a db 39 62 f3 4d bd
       -0.040770043 0.04111874 0.00041861914 -0.050280936
000340 28 dd 58 3d c2 d5 30 bd be ba 58 3d 25 c3 4f 3d
       0.052945286 -0.043172605 0.052912466 0.050723214
000350 a7 2c ac 3d f9 e4 af 3d 83 c5 ad 3d cc 56 08 bd
       0.08406954 0.08588595 0.08484938 -0.0332859
000360 94 b4 5e bc 13 ed fe bc ea 7f b7 bd b5 ce 33 3d
       -0.013592858 -0.031118905 -0.089599445 0.043898303
000370 1a b3 f6 3c 40 26 3b bd 46 d3 b6 3d a0 51 db bc
       0.0301147 -0.045690775 0.08927016 -0.02677232
000380 92 51 32 bd 2f 42 37 3d 23 30 83 bd 81 b3 76 bd
       -0.043534823 0.044740852 -0.06405666 -0.060229782
000390 fc 5e 57 bd fa 1c 4e bd 83 b4 b0 3d ca ea 30 bd
       -0.05258082 -0.050320603 0.0862818 -0.043192662
0003a0 01 18 ab 3d f8 32 08 3d 79 b4 e5 bc 7d 18 49 3c
       0.08354188 0.033251733 -0.028040158 0.012273905
0003b0 26 f8 9a 3d b2 ee e2 3c 97 bb 93 bd 97 4f 1e 3d
       0.07566862 0.02770171 -0.07213514 0.03865012
0003c0 83 c2 7b 3c 78 c2 aa 3a ab 6b a2 3d 55 b5 b3 bd
       0.015366199 0.0013027927 0.07930692 -0.08774821
0003d0 53 1f 9a 3d bf dd 37 bd bf 1d b8 3d 7f fc 2b 3c
       0.07525506 -0.044889208 0.089900486 0.0104972115
0003e0 bc 71 86 bd aa 58 58 bd f8 07 ce bc 52 90 83 3d
       -0.06564662 -0.05281893 -0.025150284 0.06424011
0003f0 e8 26 5d 3d 3a 38 9d bc 22 76 2f 3c f0 d0 19 3d
       0.053992182 -0.01919185 0.010709317 0.037552774

bias f4 [84]
000000 32 95 05 bc 2a 7b eb 3c c0 7b 61 3b 47 25 9b 3d
       -0.008153247 0.028745253 0.0034406036 0.075754695
000010 99 ac f6 3c 26 d0 a0 bd 6e a0 8e 3d 18 5b 14 bd
       0.030111598 -0.07852201 0.06964193 -0.036219686
000020 dc 7f cd 3c 4f a9 07 bc 99 1d b0 3b f2 af 1b 3c
       0.025085382 -0.008280112 0.005374622 0.009502398
000030 30 f3 61 3d 9c 74 34 3c c0 52 95 bd 4d 84 80 3d
       0.055163562 0.01101413 -0.07291174 0.06275234
000040 b9 d3 67 bd 71 69 78 bd 63 24 d6 3c 63 76 95 bd
       -0.0565984 -0.06064743 0.026140397 -0.07297971
000050 83 f6 81 bd 94 36 8b bd 6b f2 6a 3c b7 83 9b bd
       -0.063458465 -0.06797519 0.0143400235 -0.07593482
000060 39 d9 8b bd 19 c8 9e 3d 4e 77 8b bd 71 ce 0c 3c
       -0.06828541 0.07753009 -0.06809865 0.008594141
000070 d4 02 33 3d 94 b7 98 3d f3 5e 5e bd 13 16 01 3d
       0.04370387 0.0745689 -0.05428977 0.031515192
000080 4f 59 a1 3d 08 ed b3 bd 35 85 ba 3d 96 94 b3 3d
       0.078783624 -0.087854445 0.091074385 0.08768575
000090 83 4b b6 3c b0 93 a3 bd 04 e4 fb 3c 8c f4 50 bd
       0.022252804 -0.079871535 0.030748375 -0.051014468
0000a0 5e 51 2b bd cc 08 7d bd d7 49 af bd e2 ea 38 bd
       -0.041825645 -0.061775967 -0.08559006 -0.045145877
0000b0 cf 86 49 3c 6f ae 83 3d 92 0f e7 bc c8 a2 78 bd
       0.012300207 0.06429755 -0.028205667 -0.060702115
0000c0 86 07 2e bc 2d fa 00 ba 7c b3 71 bd 66 88 97 bd
       -0.010621911 -0.00049200916 -0.05900906 -0.07399063
0000d0 87 85 02 bd b0 71 8c bd 93 26 1d 3d 45 f7 32 bd
       -0.031865623 -0.06857622 0.038366865 -0.043692846
0000e0 62 3b 83 3d 3a 1c e8 bc 27 3e 05 3b 39 66 9e bd
       0.06407811 -0.028333772 0.0020331235 -0.07734341
0000f0 7b b1 6e 3c 08 ff 65 bd 12 6f eb bc 9d 6b 2f 3d
       0.014568682 -0.05615142 -0.028739486 0.042827237
000100 b1 1c b2 bd bc 91 32 3d 60 c1 8b 3d c6 36 1f bd
       -0.08696879 0.043596014 0.06823993 -0.038870595
000110 e3 ca 5f bd fd fa 90 bd f7 eb 81 bd 5c 27 5b 3c
       -0.054636847 -0.07079122 -0.06343835 0.013376083
000120 38 5a 55 bd 95 8f ec bb 12 3c ce 3b 81 d2 05 bd
       -0.052087992 -0.0072192647 0.006293782 -0.032671455
000130 c7 88 99 3d 01 70 b9 3d 2c a2 3b bb 48 66 0b bd
       0.07496791 0.09054566 -0.0028630598 -0.03403309
000140 d6 d6 ff ba 77 b3 60 bd f8 02 e2 3c 8c ef b0 3d
       -0.0019518982 -0.05485865 0.027589306 0.0863944

weight f4 [10, 84]
000000 b3 9e 9d 3c bc 2b df 3c d5 14 54 bc f3 a0 55 bc
       0.019240713 0.027242534 -0.01294442 -0.013038862
000010 de 2b 01 bb 89 96 53 3c 45 55 de bd 0f b3 9e 3d
       -0.0019709985 0.012914308 -0.108561076 0.077489965
000020 8e 6d ce 3d d5 eb 23 bd b9 71 b3 bd 1d a2 12 bd
       0.1007949 -0.04001983 -0.08761925 -0.035799135
000030 a8 17 c6 3d ee 99 f2 bc 7d 58 0b bd 55 13 05 bd
       0.09672481 -0.029614415 -0.034019936 -0.03248914
000040 0f 3e 4c bd ea 16 0f bd a1 98 9f 3d 5b af 8f 3d
       -0.04986387 -0.034933962 0.077927835 0.07015868
000050 64 13 df bd 94 21 87 3d b7 4e 92 bd 4d eb b9 3d
       -0.1089237 0.065982014 -0.0714392 0.09078083
000060 a2 fa 97 bd b9 39 a4 bc 42 22 84 bc 76 2d 6e bc
       -0.07420851 -0.020047056 -0.016129617 -0.014537206
000070 af 2a 53 3d ca df 99 3d 72 35 0d 3d 08 cc 1d 3d
       0.051554378 0.075133875 0.034474798 0.038524657
000080 fa b3 48 bd a3 7a 88 3d 13 78 8b bd 50 a7 ff 3c
       -0.048999764 0.06664016 -0.06810012 0.03120771
000090 f2 2c d4 bd fb ed 70 3b 05 54 2c bb fe 34 96 3d
       -0.10360135 0.003676294 -0.0026295197 0.07334326
0000a0 8d 17 b6 3d 93 35 13 3b 72 46 06 3d 66 29 9b bd
       0.08891211 0.0022462353 0.032782026 -0.075762555
0000b0 45 dd 22 3d 43 17 27 bd ac 34 5a bc ec 3d b0 3d
       0.0397618 -0.04079367 -0.013318222 0.08605561
0000c0 81 a6 d9 3d 48 bd 1b 39 47 67 d8 3d c3 06 d8 bd
       0.10627461 0.00014852465 0.105665736 -0.10548165
0000d0 f6 94 8b bc a6 ff 7b bd 69 94 7a 3d 61 7e 9e bd
       -0.017038804 -0.061523102 0.06117669 -0.077389486
0000e0 19 12 cd bb 5a 60 45 bb 61 57 99 bd d4 0b bc bd
       -0.006258261 -0.0030117244 -0.07487369 -0.091819435
0000f0 45 d2 ba bd ec a9 90 bc 57 a7 de 3d dd 52 84 3c
       -0.09122137 -0.01765915 0.10871761 0.016152794
000100 b9 19 9f 3d 1d 92 a5 bd 45 e2 9b 3b 70 1e d2 3d
       0.07768578 -0.080845095 0.004757198 0.10259712
000110 e2 75 35 3d 49 e2 92 bd 78 cc ac 3d 43 e7 17 3d
       0.044301875 -0.07172067 0.08437437 0.037085783
000120 de d2 aa 3b de e0 00 bd 18 61 b0 bd 71 1f ba 3a
       0.0052131256 -0.03146445 -0.08612269 0.0014200044
000130 f2 20 2b bd b5 ef e4 bc 49 0f 95 3d ab c8 c3 bc
       -0.041779466 -0.027946332 0.07278306 -0.023899397
000140 03 ba 9f bd 0b ed 95 3d a3 07 70 bd 35 22 bd 3d
       -0.07799151 0.07320603 -0.058601033 0.0923504
000150 95 d3 92 3d dd 3d 37 3d 31 2b cf 3d cb 16 a9 3b
       0.07169262 0.04473673 0.1011566 0.005160188
000160 6d 85 3c bd 2d 5d a9 3d 47 76 7c bd da ff b1 bd
       -0.046025682 0.08269725 -0.061636236 -0.08691378
000170 a7 1d b0 3d fa 30 96 3d 6d 68 9a 3c 6e 2a 32 3d
       0.08599406 0.0733356 0.018848622 0.043497495
000180 3e c6 cb bd dc ee 09 3d b2 ee d3 bd 6d a9 9a 3c
       -0.09949921 0.03367506 -0.10348262 0.018879617
000190 0c c9 d5 3c 0b 6a 66 bb 88 0a bf bd 6f e9 b6 bd
       0.026096843 -0.0035158421 -0.093281806 -0.08931243
0001a0 b4 a9 85 bd 96 b5 b4 bd 30 03 7e 3d c0 cc 8e 3d
       -0.06526509 -0.08823697 0.06201476 0.06972647
0001b0 7b fc 36 bd 51 c3 e8 bc c4 bb d9 bd da 8a 99 3c
       -0.044674378 -0.028413447 -0.106315166 0.018742967
0001c0 f5 b8 dd 3d a4 04 ea 3c 1b 59 d6 3d 79 32 56 bd
       0.108262934 0.028566666 0.10466214 -0.05229423
0001d0 79 4f b2 3c e3 7e bf 3d d4 75 9b 3d 32 ad 45 3d
       0.021766411 0.093503736 0.07590833 0.048260875
0001e0 2b 47 3f 3d 63 c1 28 bd dd 99 c9 bd 40 d1 4b 3d
       0.04669873 -0.041200053 -0.098438 0.049760103
0001f0 a1 a3 be bd a9 1d 56 bd 9d fa 8f bc cc b3 70 bd
       -0.093085535 -0.05227438 -0.017575556 -0.058765218
000200 63 5c 26 3d ba 20 80 bd b7 f5 94 3c 47 fe 6b bd
       0.04061545 -0.06256242 0.018183572 -0.057615545
000210 d2 ba 9d 3b 87 a1 65 3d 48 f4 8e bd f7 1d 0b 3d
       0.0048135305 0.056062248 -0.06980187 0.033964124
000220 5c f7 1a 3c b2 80 0f bd 50 25 19 bd d9 d7 b0 bd
       0.009458389 -0.035034843 -0.0373891 -0.0863492
000230 79 0d 45 3d 28 67 90 bd a4 2e b4 3d 7a 7c 1e bd
       0.04810855 -0.070509255 0.087979585 -0.03869293
000240 bf 38 75 3d 50 9e 6d bd a2 54 a4 3d 46 3e c0 3d
       0.05986857 -0.058012307 0.08023955 0.09386878
000250 fc a8 8f bd fb 59 c6 bd 19 34 90 bd 5e df 1f bd
       -0.07014653 -0.09685131 -0.07041187 -0.03903138
000260 4e fe b7 3d 43 3c d1 3d 99 aa 60 3d e5 fa a2 3d
       0.08984052 0.10216572 0.054850195 0.079580106
000270 0d a3 78 bd 35 f7 dc 3d bd 92 d1 bd 16 5b 46 3c
       -0.060702372 0.107893385 -0.10233066 0.0121066775
000280 9f 80 15 bd f0 50 d5 3d 8d e2 d3 3d 76 50 b9 3b
       -0.036499616 0.10415828 0.103459455 0.0056553436
000290 d9 2f 8e 3d 33 d1 19 3d c3 61 a5 bc da 15 50 bd
       0.0694272 0.037553024 -0.020188218 -0.05080209
0002a0 b8 bf 66 3d 8b 43 c3 bd 5f ff 29 bd 3a b9 b9 3d
       0.05633518 -0.09534367 -0.041503306 0.09068532
0002b0 65 d6 0d bd 71 03 a2 bd d1 88 c2 bc 5b 3c a8 ba
       -0.03462829 -0.07910813 -0.02374688 -0.001283537
0002c0 2f d9 b8 3d f4 12 c8 bd 5f 49 6d 3c b8 d2 95 bd
       0.090257995 -0.0976924 0.014482825 -0.07315582
0002d0 4f d3 2c bd 67 56 93 3d d0 b8 11 3d c2 30 74 3d
       -0.042193707 0.07194214 0.03557664 0.05961681
0002e0 fc 9d 9e 38 e4 68 bd 3a 20 6c 9d 3c 41 bb 8d bc
       7.563454e-05 0.0014450816 0.019216597 -0.017301204
0002f0 a7 0c 60 bd b4 ce 8d bd c4 b2 a6 3d 4e b0 5a 3d
       -0.054699566 -0.06924191 0.081395656 0.053390794
000300 fa f7 af 3d 47 bc d0 bd ab b0 f6 3c eb 47 7c 3d
       0.0859222 -0.10192161 0.030113539 0.061592024
000310 1b d6 76 3d 11 7e 9b 3d ea 9a d8 3b 27 20 7b bd
       0.06026278 0.07592405 0.006610264 -0.06130996
000320 4a 7a a8 3d 94 40 bc 3c a0 ae 88 bd a9 c8 ce bc
       0.0822645 0.022980012 -0.06673932 -0.025242167
000330 d1 ab 81 bd 2d 4f b1 3b 81 22 a6 bd 75 43 b0 bd
       -0.063315995 0.00541105 -0.0811205 -0.086066164
000340 08 23 9a 3c f8 59 8f bd c9 ee 3b 3d 38 0c c7 3d
       0.018815532 -0.06999582 0.04588202 0.097191274
000350 ed 8d ab 3d 07 31 db bd b6 45 cd bd 8b 55 de bd
       0.083766796 -0.107027106 -0.10023062 -0.1085616
000360 98 d5 87 3d c0 21 ce 3d 1c 0d c3 3d cf 68 41 bd
       0.06632537 0.10065031 0.09523985 -0.047219094
000370 0a 01 13 3c ae 49 c9 3d fa 86 ae bd e2 9c 99 3c
       0.008972416 0.098285064 -0.085218385 0.018751565
000380 31 ef 83 bc f9 e2 cb bd 05 ac bc 3d e5 7b a5 3d
       -0.016105266 -0.09955401 0.092124976 0.08080272
000390 4e dd c9 bd 0e 72 c8 bd c5 d2 88 bd fa 9a d5 bc
       -0.09856664 -0.09787379 -0.06680826 -0.026074875
0003a0 30 b3 f3 bb b3 2c ee bc e7 ea c2 3b 08 93 bd 3d
       -0.0074371323 -0.029074049 0.0059484127 0.092565596
0003b0 e8 27 2e 3d 80 e8 6f 3c 8d 8f c7 3d 36 20 75 bc
       0.042518526 0.014642835 0.09744177 -0.014961293
0003c0 51 36 9a 3c 7c 41 01 bd a0 b2 6b bd a6 53 0f bd
       0.018824728 -0.03155659 -0.057543397 -0.034991883
0003d0 c8 81 b6 bd 1c 6c e8 bc 38 5a cb bd 42 99 a8 bd
       -0.089114726 -0.028371863 -0.09929317 -0.082323566
0003e0 0f 03 9c bd f8 e6 d6 3c ad bb 98 bd 51 8f 93 bc
       -0.07617771 0.026233181 -0.07457671 -0.018012675
0003f0 66 3a 26 bd 04 1d e5 3c cd fe 3a bd ba 55 1a bd
       -0.040583037 0.027967937 -0.045653153 -0.03767941

bias f4 [10]
000000 bc 87 9a 3d 95 30 b7 bc 20 81 64 3d 0e 2d 96 bd
       0.075454205 -0.022362033 0.055787206 -0.07332812
000010 96 81 77 3d f1 a0 e9 bb b9 4f 31 bd a8 94 2b bd
       0.060426317 -0.0071297814 -0.04328892 -0.041889817
000020 d8 68 ab bd 94 36 41 3c
       -0.08369607 0.011792798
